task2_cnn_rnn/cifar_net1.pth (torch, 167089 bytes, 3 tensors)

conv1.weight f4 [1, 1, 3]
00000000: 73eb af3e 9dc5 d8be 8e0c 723e
0.3435932 -0.42338267 0.23637602

fc1.weight f4 [5, 8269]
00000000: c3cd 8cbc f74d 4cbb 69b4 efbb e1c8 82bc
00000010: bc1b 58bb fea9 2abc 78a1 d5bb 73c9 68bb
00000020: 716f 23bb ce5f 95bb 28d6 6dbc 23f1 e4bc
00000030: ebe3 2ebc 9e78 323b cda4 91ba ccaf 6d3a
00000040: bac9 06bc e555 ccbb 7c6e 0abc 3738 f3bb
00000050: 98c4 0f3c 62e5 9bb8 01fd 013b 521f 5cbb
00000060: 3117 40ba 676c aaba c9c8 09ba 85f0 ad3b
00000070: 8a17 d0bb 7458 3abc 250d b63b 63de 93bb
00000080: 48d1 3fbc 1847 82b8 a9bd 193c c928 ba3b
00000090: b83d 29bb 3890 c4bb 9747 95ba 36ca e4ba
000000a0: e0f7 0d3c c8dc dfb9 37b0 8abb 01d4 0fbc
000000b0: 0538 61bb 7f2f 39bb 9a79 a6bb cd2b bc3b
000000c0: b0c4 c9bb 7f5b 7b3b 1624 4939 202e 173c
000000d0: 9ca0 a83a 9554 533b 1be3 983b b152 bab9
000000e0: 5c3a d8bb 26dd 183c 5bef ddbb ae88 81bb
000000f0: 0c3c c7b9 f305 c4bb 659a 29bc d964 ef3b
00000100: 9e30 f03b 5e7c bfbb 3836 a5bb 3543 6239
00000110: ecf3 033c 55a6 2ebb 6318 c1bb 2bde 96bb
00000120: 465b a2bb 5ed4 ebba 97ef 0dbc d492 a739
00000130: c4a1 2fbc 9b5a c53b 0845 893b cdd4 dabb
00000140: 41f1 38bc c64e 713b 6859 133b 693f 5bbb
00000150: 3156 8d3b c8e8 b6ba 8c02 863b e708 823a
00000160: 5198 d2bb b055 feba 3c03 adbb e371 023c
00000170: 314c c83b 7b25 7bbb aeac 12bc bbb2 d63b
00000180: 40f7 093a 97da 873b 9418 1c3c bc5f ffbb
00000190: dced 183c 77c5 473b 895d 313b 4de5 143c
000001a0: 949f 2ebc fd21 ad3b 05c5 ac3b e685 00bc
000001b0: b550 20bc 435a 103c 026a 6d39 63d0 48bb
000001c0: fac5 093c 14df 2dbc 9315 28bc 1f1c d73a
000001d0: 5eb7 d03b 7e31 1dbc 30d5 153c e42c 993b
000001e0: 4412 5538 7826 533b 38d3 fab9 89a4 d83b
000001f0: f08e 593b 6a8f f43b ac88 26bc 15ce b9bb
00000200: a39a ebbb cb37 0fbc 5bf1 30bc b7bf a539
00000210: 4278 16bc c655 27bc 9da9 0a3c 9be3 38bc
00000220: 7f33 afba 3417 113c 0beb da3b 3bb8 f3bb
00000230: acaa 843b b6f3 203c 4673 e53b fe1c 8d3b
00000240: 4f47 0cbc 6daa dd3b a200 ffbb efe7 4f3b
00000250: 5066 73b8 9635 e0bb b88d 81bb c58e ad3b
00000260: 7ca2 e13b 1c93 70ba 9d42 183c 3260 bc3b
00000270: 8033 fcbb ac15 a339 ff8f 853b 9fea d63a
00000280: 9147 b3bb 112a 033c 5a24 b73b 33b4 113c
00000290: aaf2 d93b d1cb 4aba 1197 f13b 3711 383b
000002a0: d022 043c c428 c43b 1780 0c3b d234 993b
000002b0: 950e 45bc 4a0a 083c 2548 253b 5aa7 aabb
000002c0: 3d3d 39bc 012c 5b3a 5bbe 93bb cc00 12bc
000002d0: 96c9 12bb 5c9d 28bc eb39 58bb 8754 073a
000002e0: 3dec 26bc 2a2d 97ba 5a3d 27bc 9a45 043b
000002f0: 86df 7c3b 82fe 92bb c744 593b fea6 08bb
00000300: 7c16 2bbc 0e54 39bb fad6 f53b e80b b13b
00000310: 4483 d1b8 252e b3bb 505e 0bbc c20a dfbb
00000320: 14f1 f1bb a06b 8cba 521c 363a 931a 60bb
00000330: 480f c2ba cda5 083c 1cf7 12bc f742 363b
00000340: b02c a03b 637f c93b a173 f8bb fdeb a6bb
00000350: dd10 3bbc 531c 073c cc26 dd3b 50ac c6bb
00000360: e661 e8bb c99e f1bb 83ab 3dbb ede5 24bc
00000370: d920 29bc 7ed5 62bb f536 7d3b fdf7 383b
00000380: d04b 8c38 ef62 1abc ab31 82bb 23e1 f83b
00000390: d0b6 e2bb 8481 553b 4035 0e3b 7f15 9c3b
000003a0: bc14 b3bb 11fc f8b9 ed0a 3abc 6d3f d9bb
000003b0: ac8c 2ebc 8664 ce39 5cd7 98bb e3ef 053c
000003c0: 6260 78bb 30c8 8b3b 19dc db3b 265d 483b
000003d0: b6e9 b239 0add fbbb 90e4 01bc 56b0 26bc
000003e0: 5d81 5e3b 3457 c13b 767d 3dbc 33ee c239
000003f0: 7f34 1f38 136d f33b b317 0f3c fb25 3d3b
-0.017187959 -0.00311744 -0.0073152077 -0.015964927 -0.0032975515 -0.010416506 -0.0065194927 -0.0035520464
-0.002493825 -0.00455854 -0.014516391 -0.027947014 -0.010674457 0.0027232538 -0.0011111737 0.00090670283
-0.008226806 -0.0062358254 -0.008449193 -0.007422473 0.008774899 -7.433702e-05 0.001983464 -0.0033588004
-0.00073276745 -0.0013002277 -0.00052560546 0.005308213 -0.0063504623 -0.011373628 0.005555766 -0.0045125945
-0.011707611 -6.212125e-05 0.009383597 0.0056811315 -0.002582414 -0.0059986375 -0.0011389133 -0.0017455283
0.008665055 -0.0004269837 -0.004232432 -0.008778573 -0.0034365666 -0.002825707 -0.005080414 0.005742526
-0.00615748 0.0038354096 0.00019182297 0.009227306 0.0012865248 0.003224646 0.004665745 -0.00035538294
-0.006598754 0.00933007 -0.006772918 -0.003953061 -0.00038000976 -0.0059821545 -0.010351752 0.007305723
0.0073300144 -0.005843683 -0.005041864 0.00021578076 0.008053761 -0.0026649435 -0.0058927997 -0.004604121
-0.0049547283 -0.0017992368 -0.00866308 0.00031962118 -0.01071972 0.006022764 0.0041891374 -0.0066782
-0.011287988 0.0036820634 0.002248371 -0.0033454543 0.0043132533 -0.0013954872 0.004089659 0.0009920866
-0.006426849 -0.0019404199 -0.0052799266 0.007961723 0.0061125983 -0.00383219 -0.008952303 0.006552068
0.00052629784 0.004145931 0.009527344 -0.007793395 0.009334054 0.0030482688 0.0027063808 0.009087873
-0.010658164 0.0052835927 0.00527251 -0.007844424 -0.009784867 0.008810583 0.00022641572 -0.0030641786
0.008409018 -0.010612268 -0.01025905 0.0016411579 0.0063695153 -0.009594319 0.009145066 0.004674541
5.080017e-05 0.0032218974 -0.00047841086 0.006611411 0.003319677 0.0074633854 -0.010164421 -0.005670319
-0.007190065 -0.008741329 -0.010799731 0.0003161409 -0.009183945 -0.010213321 0.0084632905 -0.011284734
-0.0013366787 0.00885563 0.0066808513 -0.0074377335 0.004048666 0.00982373 0.007002267 0.0043064347
-0.008561923 0.006764701 -0.007782058 0.0031723937 -5.8031e-05 -0.0068423254 -0.003953662 0.0052965605
0.0068858247 -0.00091771944 0.009293226 0.005748772 -0.007696569 0.0003110593 0.0040760036 0.0016396827
-0.005471178 0.008005635 0.0055890502 0.0088930605 0.0066512423 -0.00077360595 0.007372745 0.0028086433
0.008064941 0.005986305 0.0021438652 0.004675486 -0.012027402 0.008303234 0.0025220003 -0.005207938
-0.011306104 0.0008360744 -0.004508776 -0.008911323 -0.0022397987 -0.010291424 -0.0032993506 0.0005162437
-0.0101881595 -0.0011533846 -0.010207498 0.0020183087 0.0038585379 -0.004485906 0.0033152567 -0.0020851488
-0.010442372 -0.002827886 0.007502434 0.0054030307 -9.990347e-05 -0.0054681473 -0.008506373 -0.0068067024
-0.007383475 -0.0010713227 0.0006946969 -0.0034195527 -0.001480558 0.008340311 -0.008970048 0.002781091
0.0048881397 0.006149219 -0.0075821434 -0.00509405 -0.011417595 0.008246499 0.0067490097 -0.0060630217
-0.0070917485 -0.007373665 -0.002894134 -0.010064584 -0.010322773 -0.0034612115 0.0038637493 0.0028223984
6.6898414e-05 -0.009423002 -0.003973206 0.0075951978 -0.0069187656 0.0032578418 0.002169922 0.0047633047
-0.005465118 -0.0004749005 -0.011355144 -0.0066298754 -0.010653656 0.00039366278 -0.0046643447 0.008174869
-0.0037899246 0.0042658076 0.0067095873 0.00305731 0.00034124934 -0.007686262 -0.007928029 -0.010173878
0.0033951618 0.005900288 -0.011565557 0.00037180036 3.7957445e-05 0.007428774 0.008733678 0.002886175

fc1.bias f4 [5]
00000000: 7394 5dbd fb45 22bd 5944 503e 7384 7abd
00000010: dcbf 35bd
-0.05409665 -0.03961752 0.20338573 -0.06116147 -0.044372424
