task2_cnn_rnn/cifar_net.pth (torch, 418269 bytes, 8 tensors)

conv1.weight f4 [1, 1, 5]
0	0x3e6191f0	0.22028327
1	0xbe87e24b	-0.26539835
2	0xbecee8e3	-0.40412053
3	0x3ebfec86	0.3748514
4	0x3e15adf8	0.14617145

conv2.weight f4 [1, 1, 5]
0	0xbe6356fe	-0.22201154
1	0x3e9b027e	0.3027534
2	0x3db6bed8	0.08923119
3	0x3e866d58	0.26255298
4	0xbe883124	-0.2659999

conv3.weight f4 [1, 1, 5]
0	0xbcd5f1f0	-0.026116341
1	0xbe9689fa	-0.29402143
2	0xbe4d818d	-0.20068951
3	0xbe34262a	-0.17592683
4	0xbeae0a5c	-0.3399228

conv4.weight f4 [1, 1, 5]
0	0xbeb0c25b	-0.3452328
1	0xbe95a426	-0.29226798
2	0xbea257e0	-0.31707668
3	0x3d69b8e0	0.057061076
4	0xbe3f6db8	-0.18694198

fc1.weight f4 [100, 1030]
0	0x3cd03f25	0.025420735
1	0x3cd1e7c7	0.025623215
2	0x3ce4d703	0.027934557
3	0x3c8ed425	0.017435143
4	0xbcfd3d7d	-0.030913109
5	0xbb3ba258	-0.00286307
6	0xbcb9a0c6	-0.02265967
7	0xbc673f9a	-0.014114285
8	0xbceb1a28	-0.028698996
9	0x3c3f4a46	0.011675423
10	0xbc42bdb0	-0.011886045
11	0x3c6fb5c6	0.0146307405
12	0x3c8e152b	0.017344078
13	0x3c3fc9ae	0.011705799
14	0xbc894d1a	-0.016760398
15	0x3cdf7483	0.027277237
16	0x3c09a652	0.00840147
17	0xbc8119ab	-0.01575931
18	0xbce5d58a	-0.028055925
19	0xbc03a770	-0.008035526
20	0x3c7f296e	0.015573842
21	0x3ccb3b71	0.024808617
22	0xbabdc520	-0.0014478303
23	0xbaaf5f90	-0.001337992
24	0xbc8cf966	-0.017208766
25	0xbc11f39e	-0.0089081805
26	0xbcc9cec6	-0.02463473
27	0xbcb90fce	-0.022590544
28	0xbc9cec82	-0.019155744
29	0x3ca3623f	0.019944308
30	0xbc42d612	-0.011891859
31	0xbc65b9fc	-0.014021393
32	0xb9b554c0	-0.00034586154
33	0xbb8b28b0	-0.0042467937
34	0xbcc0273e	-0.023456212
35	0xbac27100	-0.0014834702
36	0x3a1a6fa0	0.0005891267
37	0x3a95c790	0.0011427272
38	0xbc3dcd8c	-0.011584651
39	0x3ae155f0	0.0017191749
40	0x3c6b9072	0.0143777
41	0xbcba65a6	-0.022753548
42	0xbcb39e5c	-0.021926098
43	0x3c8f989f	0.01752883
44	0x3c7dd916	0.015493652
45	0xbb928f54	-0.0044726525
46	0x3cd4985b	0.025951555
47	0xbc63ec4e	-0.01391132
48	0x3ce8addd	0.028403217
49	0xbcf20fee	-0.029548611
50	0xbcd43578	-0.025904402
51	0xbc513328	-0.012768544
52	0xbc2eb3ca	-0.010662982
53	0x3bb55dec	0.005534878
54	0xbcec05e4	-0.028811403
55	0xbcd678b6	-0.026180606
56	0xbcf5d134	-0.030006982
57	0xbc560822	-0.013063462
58	0xbbb8ebec	-0.0056433585
59	0x3cd5f20f	0.0261164
60	0x3c1d03ce	0.009583427
61	0x3ca0cfcf	0.01963034
62	0x3b7f9198	0.0038996693
63	0xbb9c0380	-0.0047611594
64	0x3addd510	0.001692446
65	0x3cf14433	0.029451465
66	0x3cf109e9	0.02942367
67	0xbcdf1fc9	-0.027236836
68	0xbca9d7cc	-0.020732783
69	0x3904ef80	0.00012677722
70	0xbcb5ba10	-0.022183448
71	0x3c99aa5b	0.01875799
72	0x3c2cc0c6	0.010544008
73	0xbc7ff47c	-0.015622254
74	0x3cad404f	0.021148829
75	0x3c1e7796	0.009672066
76	0x3b92a18c	0.0044748243
77	0xbc7e0a78	-0.015505426
78	0xbc8e1f72	-0.017348979
79	0xb9133300	-0.00014038011
80	0x3c63846a	0.01388655
81	0x3c6e40e6	0.01454184
82	0xbb98284c	-0.0046434756
83	0x3cae044f	0.021242289
84	0xbc072da0	-0.008250624
85	0x3ca4fa91	0.02013901
86	0xbce8e796	-0.028430741
87	0xbcbb53b4	-0.022867061
88	0xbcb26bc9	-0.021779912
89	0xbcb9ff8a	-0.022704858
90	0x3cc36417	0.023851437
91	0xbcdcf6e9	-0.026973205
92	0xbc01ddae	-0.007926388
93	0x3bea833c	0.0071567576
94	0x3b8f7ee4	0.00437914
95	0xbca0a863	-0.019611543
96	0xbba1c20c	-0.0049364623
97	0x3cb82a9f	0.02248126
98	0xbc33ba8a	-0.010969767
99	0xbccb6d5b	-0.024832418
100	0xbcdeb054	-0.02718369
101	0x3bd1efb4	0.0064067487
102	0x3c0547c6	0.008134788
103	0x3c8fdfbf	0.017562745
104	0xbbc771ec	-0.0060865786
105	0xbcfe1321	-0.03101498
106	0xbcbfe141	-0.02342284
107	0x398a5e40	0.00026391633
108	0x3c4472f6	0.011990299
109	0xbb901c6c	-0.0043979194
110	0x3c107aea	0.0088183675
111	0x3ccd2039	0.025039779
112	0x3c2540da	0.010086263
113	0xbc3dfcac	-0.011595886
114	0xbcc22e02	-0.023703579
115	0xbb8aedec	-0.0042397883
116	0xbcd074af	-0.025446264
117	0x3cd91841	0.026500823
118	0xba087300	-0.00052051246
119	0x3acbebd0	0.0015557948
120	0x3b244b98	0.0025069471
121	0xbc4a43ba	-0.012345249
122	0x3cfcb8c7	0.030849827
123	0xbc86a74c	-0.016437195
124	0x3cba872b	0.022769531
125	0xbce7a46e	-0.028276648
126	0x3c86f4a1	0.01647407
127	0x3cc6a53d	0.024248714
128	0x3c36daa6	0.011160528
129	0xbbb16fbc	-0.005414931
130	0x3ca31c21	0.019910874
131	0xbbb0f5c8	-0.005400393
132	0xbb8cd610	-0.004297979
133	0xbcf416ed	-0.029796088
134	0xbb830808	-0.00399876
135	0xbcb2834e	-0.021791127
136	0x3a8277f0	0.0009953957
137	0xbc12cd7c	-0.008960124
138	0xbcc39d8b	-0.023878833
139	0xbcab07fa	-0.020877827
140	0x3cad67c1	0.021167638
141	0x3ace6bf0	0.0015748721
142	0xbc8acf2c	-0.01694449
143	0x3c6d56b6	0.0144860055
144	0x3ccd1d05	0.025038252
145	0x3c0dfb42	0.008665862
146	0x3cb40187	0.021973385
147	0xbb9a81e8	-0.004715193
148	0x3bb12d7c	0.0054070335
149	0x3b30af38	0.0026959907
150	0xbc06835c	-0.008210029
151	0x3ca82b6d	0.02052852
152	0xbc386058	-0.011253439
153	0xbc85cffe	-0.01633453
154	0x3cde3b7f	0.02712798
155	0x3c5affd2	0.013366656
156	0xb9372400	-0.00017465651
157	0x3ce7826b	0.02826043
158	0x3c4063b6	0.011742523
159	0x3cc54c7f	0.024084328
160	0xbccb989f	-0.024853049
161	0xbcc0c4a4	-0.023531266
162	0xbce877f9	-0.02837752
163	0xbcbd2aad	-0.023091638
164	0xbc315394	-0.010823149
165	0xbc7bf09e	-0.015377192
166	0x3cb2347b	0.02175354
167	0xbce8c40e	-0.028413799
168	0x3c2a7932	0.010404872
169	0x3ca47da7	0.020079447
170	0x3cc4ec27	0.024038387
171	0x3cd339c9	0.02578439
172	0xbcf87c3d	-0.030332679
173	0xbc911c28	-0.017713621
174	0x3a3f1ba0	0.0007290188
175	0x3ce4bdd3	0.027922546
176	0x3cb20a8b	0.021733543
177	0x3bb00324	0.005371468
178	0xbc8d4ec2	-0.017249469
179	0x3caeb523	0.021326607
180	0xbc561dca	-0.013068626
181	0xbb92094c	-0.0044566747
182	0xbcd8af79	-0.02645086
183	0xbc487c08	-0.012236603
184	0xbb7260a8	-0.003698388
185	0xbc5d2b92	-0.0134991575
186	0xbcd21871	-0.02564642
187	0xb9d0b240	-0.00039805658
188	0xbb1e7cc0	-0.0024183244
189	0x3c5cf636	0.013486436
190	0x3cad17df	0.021129547
191	0xbc519470	-0.012791738
192	0x3c231396	0.0099534
193	0xbcc63ae2	-0.024198
194	0x3cb5b787	0.02218224
195	0xbbd056c0	-0.0063579977
196	0x3ca484fd	0.020082945
197	0x3c15460a	0.009110937
198	0xbc909902	-0.017651085
199	0x3c849eaf	0.016188947
200	0x3c930021	0.017944397
201	0xbb193f48	-0.0023383666
202	0xbcf9a262	-0.030472938
203	0x3ccb6aa3	0.024831122
204	0xbc96139a	-0.018319894
205	0x3c7c0e36	0.0153842475
206	0xbcefe595	-0.029284278
207	0xbcd60677	-0.02612613
208	0xbc95c270	-0.018281192
209	0x3b6f5ad8	0.0036522653
210	0x3c6e47c6	0.014543479
211	0x3b54c608	0.0032466669
212	0xbc9e0c2b	-0.019292912
213	0xbc9037cc	-0.017604731
214	0xbc55b4cc	-0.013043594
215	0xbcb55e90	-0.022139817
216	0xbac09660	-0.0014693253
217	0xbbc762fc	-0.006084798
218	0xbb8db98c	-0.0043250974
219	0x3ceaff59	0.028686212
220	0xbc4b11dc	-0.012394395
221	0xbb8c75b0	-0.0042864904
222	0xbc800e87	-0.015631927
223	0xbbadd3c8	-0.0053047873
224	0x3cfca8bb	0.030842176
225	0x39635e80	0.00021683611
226	0x3cfadfc3	0.030624276
227	0xbc75116c	-0.014957767
228	0xbcbb3bda	-0.022855688
229	0x3aa36230	0.0012465175
230	0xbcf4f1bd	-0.029900426
231	0x3cae2e9b	0.021262458
232	0x3cf978b9	0.030453073
233	0xbcb460fc	-0.022018902
234	0x3c5c0eba	0.013431245
235	0xbcf687ff	-0.030094145
236	0x3c0709f2	0.008242117
237	0x3cae4fc5	0.021278271
238	0xbc1f7704	-0.009732965
239	0xbc897a5b	-0.016781976
240	0xbca6d6f2	-0.020366166
241	0xbce8af6e	-0.028403964
242	0x3c468ffa	0.012119288
243	0xbc8297e8	-0.015941575
244	0x3bd638a4	0.006537514
245	0x3b385d58	0.002813181
246	0xbc464772	-0.012101995
247	0xbcf3c215	-0.029755631
248	0xb954a780	-0.00020280294
249	0xbcbb2d36	-0.022848707
250	0x3cde9eeb	0.027175387
251	0x39f7e540	0.00047282316
252	0xbbdb46b8	-0.00669178
253	0xbbba70e8	-0.005689729
254	0x3c4df81a	0.012571359
255	0xbc244c7c	-0.010028001

fc1.bias f4 [100]
0	0x3e2b236b	0.1671273
1	0x3ed21e14	0.41038573
2	0xb6151f68	-2.222101e-06
3	0xbc70da40	-0.014700472
4	0xbc81ac31	-0.015829178
5	0xbc0c2a18	-0.008554958
6	0x3ede6b82	0.43441397
7	0xbbc1ea98	-0.0059178583
8	0xb7268bf1	-9.926954e-06
9	0xbcf8f39f	-0.030389605
10	0xb78cadea	-1.6770286e-05
11	0xbc46cee8	-0.012134291
12	0xbbad6c78	-0.0052924715
13	0xbbc31e08	-0.0059545077
14	0xbc79456e	-0.015214307
15	0xbc760d08	-0.015017755
16	0x3ebb1006	0.36535662
17	0xbc42e13a	-0.0118945185
18	0xbbfa33b0	-0.007635556
19	0x3f2596ad	0.6468304
20	0xbca46a3a	-0.020070184
21	0xb57f25b7	-9.5049785e-07
22	0xbc937ffa	-0.01800536
23	0xbcaa8ce6	-0.020819139
24	0x3ed11981	0.4083977
25	0xbac2aad0	-0.0014851931
26	0xb40660ef	-1.2514987e-07
27	0xb5bf0e10	-1.4234702e-06
28	0x3e157c62	0.1459823
29	0xbb943500	-0.0045229197
30	0x3ecd7294	0.4012648
31	0x3ef292de	0.47377676
32	0xbc7ab7a4	-0.015302572
33	0x3dcb40ca	0.09924467
34	0xbc4490be	-0.0119974
35	0x3e3a4380	0.18189812
36	0xbc12f59a	-0.008969689
37	0xb73ba1cb	-1.1183739e-05
38	0xbc7078e4	-0.01467726
39	0xbb351560	-0.0027631149
40	0xbc2aaf10	-0.010417715
41	0xb5d9c498	-1.6224976e-06
42	0xbb360910	-0.0027776398
43	0xbcbdbae7	-0.023160411
44	0xb6b7f4c7	-5.482321e-06
45	0xbbfa9388	-0.0076469816
46	0xb65028c8	-3.1018153e-06
47	0xbc1cf114	-0.009578962
48	0x3f3d97dc	0.74059844
49	0x3eb6f4bc	0.35733593
50	0xbc30a2c4	-0.010780994
51	0x3e2d18be	0.1690397
52	0x3e460358	0.19337213
53	0xb75f23fb	-1.3300213e-05
54	0xba81cf10	-0.0009903628
55	0xbcaa7eec	-0.020812474
56	0x3e43d570	0.19124389
57	0xb68eb9be	-4.253553e-06
58	0xb98beec0	-0.0002669003
59	0x3ed60b06	0.41805285
60	0xbce1a21e	-0.027543124
61	0xbc070936	-0.008241942
62	0xbc639b94	-0.013892073
63	0xbcc88360	-0.024476707
64	0xbcee626f	-0.029099671
65	0x3e382a2d	0.17984839
66	0xbcd37ec8	-0.02581729
67	0xb65b40cb	-3.2671257e-06
68	0xbcd5d252	-0.026101265
69	0xb7053624	-7.940023e-06
70	0xbc817e06	-0.015807163
71	0x3f39a670	0.7251959
72	0xbae5a180	-0.0017519444
73	0x3f08a19b	0.5337159
74	0xb77b5735	-1.498107e-05
75	0x3ef0b699	0.4701431
76	0xb3544510	-4.942291e-08
77	0x3e832c4c	0.25619733
78	0x3ea643b0	0.32473516
79	0x3f12a7f0	0.572875
80	0xbc57d20c	-0.013172638
81	0x3e692395	0.2276748
82	0xbc2b808c	-0.01046766
83	0xb78fa96a	-1.7125818e-05
84	0xbca0aa40	-0.019612432
85	0xb9954a40	-0.00028474815
86	0xb6b84567	-5.491707e-06
87	0xbc9d9306	-0.019235145
88	0xbc742cea	-0.0149032865
89	0xbc1187bc	-0.008882459
90	0xba261260	-0.00063351355
91	0xbca90d04	-0.02063609
92	0xb6cb3b3a	-6.0567663e-06
93	0xb6a42d24	-4.892836e-06
94	0xb75da2dd	-1.3210546e-05
95	0xbc604d60	-0.013690323
96	0xb4f51ac2	-4.5654275e-07
97	0xbcf0439d	-0.029329116
98	0xbc09c6d6	-0.008409223
99	0x3e7fd51c	0.24983639

fc2.weight f4 [5, 100]
0	0xbc250980	-0.010073066
1	0xbcb40eaa	-0.021979649
2	0xbcafe1b4	-0.021469928
3	0x3d1f8252	0.038942643
4	0xbc8458c0	-0.0161556
5	0x3c19ec68	0.009394743
6	0xbe31b90a	-0.17355743
7	0x3d89e651	0.067333825
8	0xbd8d294c	-0.068926424
9	0x3d048916	0.032357298
10	0x3d40d98a	0.04708246
11	0x3dc19c01	0.094535835
12	0xbc81fc98	-0.015867516
13	0x3a8b30c0	0.0010619387
14	0x3d6672d2	0.056261845
15	0xbd7efe23	-0.062254082
16	0xbe28491e	-0.16434142
17	0xbdc64d02	-0.09682657
18	0xbdb86a90	-0.090047
19	0xbe362cda	-0.17790547
20	0xbda8d7c3	-0.08244278
21	0xbd0a703d	-0.033798445
22	0x3d995579	0.07487006
23	0xbd63841d	-0.055545915
24	0xbe372a87	-0.17887317
25	0x3da3bd23	0.07995059
26	0x3d011ed2	0.031523533
27	0x3d5867d2	0.052833386
28	0xbdec96b1	-0.115521796
29	0xbd6454a0	-0.055744767
30	0xbc66b89a	-0.014082098
31	0xbe464f17	-0.19366108
32	0x3d2afc72	0.041744657
33	0x3c201a10	0.009771839
34	0x3c1e12d8	0.009648047
35	0xbe02b569	-0.12764515
36	0xbd5a5e50	-0.0533126
37	0xbd8ba97e	-0.068194374
38	0xbd295e53	-0.04134972
39	0x3b8a2ad0	0.0042165294
40	0xbc802f68	-0.015647605
41	0xbd7038e6	-0.058648013
42	0x3d6e99be	0.05825209
43	0xbdb5b10a	-0.08871658
44	0x3c979e1d	0.018508011
45	0x3d953ad9	0.07286615
46	0x3d4df4c0	0.05028224
47	0x3c5cdc68	0.013480283
48	0xbe76abd3	-0.24088983
49	0xbe2cc2c8	-0.16871178
50	0xbd2f5aea	-0.04281131
51	0xbd7f9b2e	-0.06240385
52	0xbe078a19	-0.13236274
53	0xbab241b8	-0.0013599908
54	0xbd76f987	-0.06029656
55	0x3d1c5032	0.038162418
56	0xbda5cd21	-0.08095766
57	0xbd79c1af	-0.060975727
58	0x3d2ee282	0.042696483
59	0xbddb80e1	-0.10717941
60	0x3ce2cb44	0.027684815
61	0x3cd75454	0.026285328
62	0x3cdef404	0.027215965
63	0xbd68be97	-0.056822386
64	0x3d2af576	0.041737996
65	0x3baa4863	0.0051966175
66	0xbd863648	-0.06553322
67	0xbc2c54f8	-0.010518305
68	0x3da5073d	0.08058021
69	0x3dc96bd2	0.09835018
70	0x3cdf5734	0.027263261
71	0xbe532c52	-0.20622376
72	0x3c695710	0.014241949
73	0xbe553862	-0.2082229
74	0x3cc0b9e6	0.023526143
75	0xbd5f42f1	-0.0545072
76	0xbcba2adf	-0.02272552
77	0xbde0e437	-0.109810285
78	0xbe001be9	-0.12510647
79	0xbe278d32	-0.16362455
80	0x3cbbbc88	0.022917047
81	0xbdbf2f03	-0.09335139
82	0x3dafcf0d	0.08584414
83	0x3d2f6a77	0.042826142
84	0x3cf6a0b4	0.030105926
85	0x3db0f42d	0.08640323
86	0x3dc1bc2d	0.0945972
87	0xbcdfc2cc	-0.027314566
88	0xbd31fe8a	-0.043455638
89	0x3cf70664	0.030154414
90	0x3d1d6c32	0.03843326
91	0x3d709da2	0.05874408
92	0xbc8ffd45	-0.017576823
93	0x3b1ac418	0.0023615416
94	0xbd9d4e11	-0.076809056
95	0x3d1126b2	0.035437293
96	0xbcc420ee	-0.023941483
97	0xbd87eb94	-0.0663673
98	0x3bfca430	0.0077100024
99	0xbdf27785	-0.11839203
100	0x3ce9b923	0.028530663
101	0x3baf2501	0.0053449874
102	0xbd801cc8	-0.062554896
103	0xba7f9c00	-0.0009750724
104	0x3c29cf30	0.010364339
105	0xbc6856d8	-0.014180861
106	0xbe1cf779	-0.15328778
107	0x3ce2f83c	0.027706258
108	0x3d811337	0.06302493
109	0x3db38947	0.08766418
110	0x3da5d06c	0.08096394
111	0xbcc56eb8	-0.024100646
112	0x3c5590e8	0.013035037
113	0x3bfde720	0.0077484995
114	0x3ce2abcc	0.02766981
115	0xbbae7150	-0.0053235665
116	0xbdd543e4	-0.1041334
117	0x3da1c8bf	0.078996174
118	0xbcd25840	-0.025676847
119	0xbdb845a7	-0.0899766
120	0x3db1a3c9	0.08673818
121	0xbc8ec0b9	-0.017425882
122	0x3a572e80	0.0008208528
123	0x3d15973a	0.036521174
124	0xbe1c439d	-0.15260167
125	0xbcff20c8	-0.031143561
126	0xbcba893b	-0.022770515
127	0x3c962cc7	0.018331898
128	0x3cc002df	0.023438869
129	0x3c8f9918	0.017529055
130	0xbddf8cee	-0.10915552
131	0x3a6214e5	0.00086243293
132	0x3da5c8df	0.08094954
133	0x3d79e672	0.061010785
134	0x3d230002	0.03979493
135	0xbdf4cf8c	-0.11953649
136	0xbd79c13d	-0.060975302
137	0xbb5b002a	-0.0033416846
138	0x3dc4c979	0.0960874
139	0xbd27eb1d	-0.040995706
140	0x3d8c56ad	0.068524696
141	0xbbe7c0d8	-0.0070725493
142	0xbdb10f3b	-0.08645483
143	0xbd468d83	-0.0484748
144	0xbd19d9df	-0.037561294
145	0x39c45500	0.00037447363
146	0x3d8babfc	0.06819913
147	0x3dc52dd5	0.096278824
148	0xbe3090ef	-0.17242788
149	0xbc958684	-0.018252619
150	0x3d0d1a8e	0.034449153
151	0x3d685fdf	0.056732055
152	0x3d0d5838	0.03450796
153	0xbd9d8873	-0.07692041
154	0xbd6d3613	-0.057912897
155	0xbbff7f20	-0.007797137
156	0xbdc11503	-0.09427836
157	0x3cde4e21	0.027136864
158	0x3d1f615e	0.038911216
159	0xbd3931e7	-0.045213606
160	0xbd724277	-0.059145417
161	0x3ce19e9c	0.027541451
162	0xbda4321d	-0.08017371
163	0x3daf6931	0.085649855
164	0xbd2b4fca	-0.04182414
165	0x3cc93355	0.02456061
166	0x3dbde639	0.09272427
167	0x3d777238	0.060411662
168	0x3d316656	0.043310486
169	0x3ced65bf	0.02897918
170	0x3d4d0792	0.050056048
171	0xbd8fc385	-0.07019714
172	0xbd98a07a	-0.074524835
173	0xbdb549f1	-0.08851994
174	0xbd9745c6	-0.07386355
175	0xbd70db9b	-0.058803182
176	0xbd8765c9	-0.06611211
177	0x3cdf61f5	0.02726839
178	0xbd8013e8	-0.06253797
179	0xbe2ef7af	-0.17086671
180	0xbd81e32d	-0.063421585
181	0x3d298b4b	0.041392606
182	0xbd8cf26e	-0.06882177
183	0xbdabb9c1	-0.08385039
184	0xbd108740	-0.035285234
185	0xbc26f6f0	-0.01019071
186	0x3d1804d8	0.037113994
187	0xbccb6054	-0.024826206
188	0x3d3f7b72	0.046748586
189	0xbd224603	-0.03961755
190	0x3bc69ce0	0.0060611814
191	0xbdbab87a	-0.09117217
192	0x3d8c62cb	0.06854781
193	0x3da4913c	0.08035514
194	0x3d9fd9e0	0.07805228
195	0x3ca462f8	0.020066723
196	0xbb0e4f4c	-0.0021714745
197	0x3d6efb2a	0.058344997
198	0x3d45584a	0.048179902
199	0xbccc17c1	-0.02491367
200	0x3e34abe7	0.176437
201	0x3ece7128	0.40320706
202	0xbd93ffd1	-0.072265275
203	0x3da69795	0.08134381
204	0x3dbfb33f	0.0936036
205	0xbd104024	-0.03521742
206	0x3eb25a7f	0.34834668
207	0xbc98b680	-0.01864171
208	0xbd8a3a20	-0.06749368
209	0x3dc4d02d	0.09610019
210	0xbdb8d3b8	-0.09024757
211	0xbd457507	-0.04820731
212	0xbc9f5a98	-0.019452378
213	0x3d809c1b	0.06279775
214	0x3bbbc860	0.0057306737
215	0xbd7e1ad0	-0.06203729
216	0x3e94d2e3	0.29067144
217	0xbd658797	-0.05603751
218	0x3b3dc000	0.0028953552
219	0x3f18fd37	0.59761375
220	0xbb9086a0	-0.00441058
221	0xbd87cfa3	-0.066314004
222	0x3cc8ebf8	0.024526581
223	0x3c66acd0	0.014079288
224	0x3e9f511e	0.31116575
225	0xbd6218ea	-0.05519954
226	0xbc47cb80	-0.012194514
227	0xbcd5f507	-0.026117815
228	0x3dc417b0	0.095748305
229	0x3d260eba	0.040541388
230	0x3ebb1604	0.36540234
231	0x3eea2294	0.45729506
232	0xbda67c9e	-0.081292376
233	0x3dd58ea5	0.10427598
234	0x3db49a31	0.08818472
235	0x3e043124	0.1290937
236	0xbcb307ac	-0.021854244
237	0xbdb783ce	-0.089606866
238	0x3c49c330	0.012314603
239	0xbd8a84c4	-0.06763604
240	0xbd83f626	-0.064434335
241	0xbcb5a260	-0.022172153
242	0xbbcfa9d0	-0.006337382
243	0x3da7afd1	0.08187831
244	0x3b3d5b2b	0.0028893452
245	0xbd12fcba	-0.03588555
246	0xbd5fbf5f	-0.054625865
247	0xbc03d4d8	-0.008046351
248	0x3f287688	0.65805864
249	0x3e99530c	0.29946172
250	0x3d32eee6	0.043684863
251	0x3e5037c5	0.20333774
252	0x3e2cffe7	0.16894494
253	0xbd6c76b7	-0.057730403
254	0x3c894820	0.016758025
255	0x3db37ca1	0.087640055

fc2.bias f4 [5]
0	0xbf40fa76	-0.75382173
1	0xbf07f172	-0.5310279
2	0x400d46b9	2.2074416
3	0xbea9939d	-0.33120432
4	0xbf3032ba	-0.688274
