task2_cnn_rnn/glove_cnn_net.pth (torch, 76171 bytes, 8 tensors)

conv1.weight f4 [20, 100, 2]
000000 6f d3 3e 3d 38 b3 14 bd 71 32 7b bd 8b a3 54 3d
       0.046588358 -0.03630373 -0.0613274 0.05191378
000010 79 54 bf 3d f9 64 3b 3c 57 1a cc bc 36 47 4b bd
       0.09342284 0.011437648 -0.024914904 -0.04962846
000020 9c b6 b2 39 fa 4e 31 3b c9 49 b2 3d 15 e4 70 bd
       0.0003408686 0.002705513 0.0870548 -0.058811266
000030 83 7b be 3c bc 21 cd bb 89 92 3a 3d d5 7c 54 3c
       0.023252254 -0.006260125 0.045549903 0.012969215
000040 da a3 39 bd de 88 11 3d 51 05 92 38 54 78 87 bd
       -0.045322277 0.035530917 6.962813e-05 -0.06614748
000050 9f aa 91 bd bd 30 07 3d 4c de d6 bb 21 d6 f5 bc
       -0.071126215 0.033005465 -0.0065572616 -0.030009331
000060 16 c0 18 3d 78 72 36 bd ea 6f ad bc f0 5e 04 3b
       0.037292562 -0.04454276 -0.021171529 0.0020198189
000070 a0 f2 3e 3d 44 33 30 ba 02 ec bd 3c cb 0e ff 3c
       0.046618104 -0.00067215064 0.023183826 0.031134984
000080 af c1 84 3c 6f a7 02 3d 42 bd 6a bb cf 18 8e bd
       0.016205637 0.03189796 -0.0035818373 -0.069383256
000090 7f 5b 76 3d 59 fb 5a 3d b4 f3 ac 3d cd 21 59 bd
       0.06014585 0.05346236 0.0844492 -0.05301075
0000a0 19 3f 3e bd 4b ed 11 3c 71 7e 63 bd b9 01 4f bd
       -0.046446893 0.008906673 -0.055540506 -0.050538752
0000b0 ec 51 25 bd aa 04 8e 3d df 1a 4d 3d a1 da 43 bc
       -0.04036133 0.06934483 0.050074454 -0.011953981
0000c0 fd b1 14 3d 06 3f 92 bb fe 19 9f bb 16 2e 2d 3d
       0.036302555 -0.0044630794 -0.0048553934 0.04228028
0000d0 76 ce d4 3c fc 22 81 3d 52 84 3d bd e9 00 81 3d
       0.025977354 0.06305501 -0.04626877 0.06299002
0000e0 09 42 6f bc e5 99 46 3d 88 ed 67 3d 19 c7 d1 bb
       -0.014603146 0.04848661 0.05662301 -0.006401908
0000f0 10 96 5b bd 8f b6 71 bd 14 e4 3b bd ff 20 74 bd
       -0.053609908 -0.059011992 -0.04587181 -0.05960178
000100 68 6f 55 3b dd b1 6d bd e8 d4 00 3c e9 cf 01 3d
       0.0032567624 -0.05803095 0.007863261 0.03169242
000110 a1 0e a7 bc 1c 9f b2 39 dd df 03 3d 12 54 6e bc
       -0.020392718 0.0003406935 0.032195915 -0.014546411
000120 58 46 cd bc 92 de 23 bd 31 b1 1a bd e8 f3 2b bc
       -0.025057957 -0.04000718 -0.03776664 -0.0104951635
000130 77 f8 8c bd c2 cf 02 3d a0 40 38 bd f1 5d a5 bc
       -0.068833284 0.031936415 -0.044983506 -0.020186396
000140 ec 46 71 bd 43 2e 00 3d f3 67 b0 3c 58 48 e8 bc
       -0.058905527 0.03129412 0.021533942 -0.028354809
000150 91 74 95 bc 76 b0 6f 3d 64 fc 9d bb e8 c2 1b bd
       -0.01824406 0.058517896 -0.004821347 -0.038027674
000160 f1 67 9b bd f3 30 5d bd 3c 22 87 bd 34 38 3a bd
       -0.075881846 -0.05400176 -0.065983266 -0.045463756
000170 5b 19 8b 3d 34 9c 7d bd 0f 6e 94 bc f3 f8 6f ba
       0.067919455 -0.061916545 -0.018118886 -0.0009154223
000180 ca 2e 97 3a 13 d6 96 3c af 27 be 3b ae 4b 5e bc
       0.001153433 0.018412625 0.0058030705 -0.013567848
000190 c8 40 32 3d 5f 2d 9e bc f0 95 8c 3d 1e 6c b3 3c
       0.04351881 -0.019308744 0.06864536 0.02190214
0001a0 2b db 08 3d bd c0 66 bd 1e 09 dd 3d 5d 4a c7 bc
       0.03341214 -0.056336153 0.107927546 -0.024327451
0001b0 a5 50 de 3b 65 21 7b 3d 9d 6e f1 bc b4 23 be bd
       0.006784516 0.061311144 -0.02947169 -0.092841536
0001c0 74 99 62 3d 0e b1 27 bd c1 74 88 bd 3d e5 a6 bc
       0.055322126 -0.040940337 -0.06662894 -0.020372981
0001d0 68 ca 30 3d 49 b5 06 bc 23 2b 9a 3c 85 25 0d 3d
       0.04316178 -0.008221933 0.018819397 0.03445961
0001e0 39 ed 80 bd f4 df 2a bd 24 55 e5 3d b3 23 bf 3c
       -0.06295247 -0.041717485 0.1119788 0.023332452
0001f0 b6 0c 89 3d 0b 3e 3f 3d 5b 1b a5 bc 30 d4 03 bd
       0.066918775 0.04669003 -0.020154646 -0.03218478
000200 93 84 ef ba 1f 58 2c 3c ea 72 64 ba 48 e7 88 bd
       -0.0018273763 0.010519057 -0.00087146333 -0.066847384
000210 3f da 30 bc 00 ee 72 3d 57 5c ab bb 87 95 15 bd
       -0.010794221 0.059309006 -0.0052295136 -0.036519554
000220 db 59 38 bd c1 49 9b bc 15 1b 55 bb a6 c7 37 bd
       -0.045007568 -0.018956067 -0.0032517363 -0.044868134
000230 69 0c 82 bc 15 82 87 39 ec 4b 15 bd 55 c1 b2 3c
       -0.015875058 0.00025846125 -0.036449358 0.021820704
000240 2a 0c 87 3c 13 3a 8a bd 3c fc 56 bd aa 18 85 3d
       0.016485292 -0.06749358 -0.052486643 0.06498845
000250 52 b1 5f 3d c2 ef 85 3d 30 01 b4 bc d8 56 8b bc
       0.054612465 0.06539871 -0.021973222 -0.017009184
000260 09 f9 93 bd 81 02 51 bd 56 52 65 bc aa c9 15 bd
       -0.07225234 -0.05102778 -0.013996681 -0.036569275
000270 99 a5 84 bd 88 b3 c0 bc 98 1d 9a bb 3a c5 e1 3b
       -0.06476898 -0.023523107 -0.004703235 0.0068899663
000280 eb ac ad 3c 20 61 77 bd 2f 69 66 3d f0 82 62 bc
       0.021200618 -0.06039536 0.056252655 -0.013825163
000290 b9 bb e0 3b c6 61 2a bd e8 ba 79 3d 21 12 30 bd
       0.006858316 -0.04159715 0.060969263 -0.04298604
0002a0 d4 80 3d bd 43 45 0b 3d a7 5b 84 bd 59 c6 8e bd
       -0.04626544 0.0340016 -0.06462794 -0.069714256
0002b0 a3 17 3f 3d dc da 82 bb b4 72 8b bd 14 8b 54 bd
       0.0466534 -0.003993375 -0.06808987 -0.051890448
0002c0 81 1c 2c 3d 39 a5 0b 3d dd 43 2b bd 5f 99 58 3d
       0.04201937 0.034093115 -0.041812766 0.05288064
0002d0 7f a3 c5 bc 4a 80 1a bd 4c 18 86 3a e9 57 70 3d
       -0.024125813 -0.037720002 0.001023063 0.058677588
0002e0 aa 0a 20 3c ae ca 33 bd 9c df e4 3c 86 2f 8f 3d
       0.0097681675 -0.043894462 0.027938657 0.06991486
0002f0 1e 9d ee bb 83 fc 85 3d 5f ea e8 3c c1 0f 28 3d
       -0.0072819134 0.065423034 0.02843207 0.04103065
000300 32 ff 99 bd 2f 5a 01 3d 8b 28 fe bc 56 c2 19 bc
       -0.07519378 0.031580146 -0.031025192 -0.009384712
000310 95 d8 95 3d c0 f0 63 3d 52 fe 9b 3d fb e2 86 bd
       0.073167 0.05564952 0.07616867 -0.06586262
000320 87 8e 74 bd 18 91 65 bd 3f 62 b9 3c b1 6e 3b 3c
       -0.059706237 -0.056046575 0.022629855 0.011439965
000330 8f 43 95 bc 6e b2 87 3c 8d eb 14 3d 90 d0 7a bd
       -0.018220691 0.016564574 0.03635745 -0.061234057
000340 e8 a8 73 bc a0 58 a4 3c ff 8b 8d 3c 7a 12 06 bd
       -0.014871813 0.020061791 0.01727867 -0.032732464
000350 4a 41 51 bd 04 87 c9 bc ee d1 0f bd 20 76 1a bc
       -0.051087655 -0.024600513 -0.035112314 -0.009427577
000360 15 4f 0c bd b1 a0 37 3d ae 04 7f 3d 01 2f 73 3c
       -0.034255106 0.04483098 0.062260322 0.01484275
000370 4f 10 1f 3d 41 f7 7d bc 5d 94 ce 3c 11 7a 08 3d
       0.038833912 -0.015500844 0.02521723 0.033319537
000380 99 84 2a 3d 69 bb 6a bd 7d 8e 7e bd ef 8d 36 3d
       0.04163036 -0.057307635 -0.062147606 0.044568952
000390 eb 8f 43 bd 34 1b 88 bd b8 c8 10 3d 87 52 22 bc
       -0.047744673 -0.066458136 0.03534767 -0.009907371
0003a0 4c 30 b4 bc 99 63 20 3b 27 23 60 bd 39 29 33 3d
       -0.021995686 0.0024473427 -0.054721024 0.043740485
0003b0 5d d6 3a 3d 75 1c 20 bd e8 7c 41 3d 5f 8c de bc
       0.04561459 -0.03908964 0.04723826 -0.027166544
0003c0 ec fd 09 3c 49 91 37 bd cc 3c 18 3d 9b f4 0a 3d
       0.008422356 -0.04481629 0.037167355 0.03392468
0003d0 ad f8 f2 3c 0a 1a 4d 3d 06 8d e7 3c 7f 5b 3f bd
       0.029659593 0.05007366 0.028265487 -0.046718117
0003e0 11 87 a9 bc ee 0e 41 3d c3 31 57 bd c5 70 9d bc
       -0.020694287 0.04713338 -0.05253769 -0.019218812
0003f0 e1 44 34 3d af 74 73 3d de 14 72 bd 7d 22 dc 3c
       0.044011 0.05943745 -0.05910193 0.026871914

conv1.bias f4 [20]
000000 c7 d1 7e 3e bb 19 3f 3c 4e 3f 03 3e 06 af bc bc
       0.24884711 0.011663849 0.12817118 -0.023032676
000010 fc 96 26 3e ee e5 a4 3e 12 77 05 3e 53 88 b3 3d
       0.16268533 0.32206672 0.13033703 0.08766236
000020 af f0 89 3e ca c3 a6 bc 49 1d 22 3e 5e fd c2 3e
       0.2694144 -0.020357031 0.15831484 0.3808393
000030 63 58 78 3c f0 bc c9 3d c5 30 91 3e 25 d7 50 bd
       0.015157792 0.0985049 0.2835752 -0.050986428
000040 e0 10 3b 3c bf 10 b3 3d 62 16 9c 3d 94 d4 12 bd
       0.0114175975 0.087434284 0.07621457 -0.03584726

conv2.weight f4 [20, 100, 3]
000000 19 df f1 3c b1 ce 66 bd 92 72 8f bc 03 88 a7 bc
       0.029525327 -0.05634946 -0.017510686 -0.020450598
000010 62 7f f4 bc 67 8d 0e bd 60 63 0a 3c 87 06 69 3d
       -0.029845897 -0.03480282 0.008446544 0.05689099
000020 28 d8 14 3d da 40 f4 3c 8f b9 3f 3d d4 27 05 bd
       0.036338955 0.02981608 0.04680782 -0.032508686
000030 27 6d 27 3d 23 d0 60 bd a2 a1 0a bd 8e 49 6a 3d
       0.04087558 -0.054885995 -0.03384555 0.057199053
000040 6f a3 93 3c e4 01 1d 3d d5 51 e7 bc 40 80 66 3d
       0.018022267 0.03833188 -0.028237263 0.056274652
000050 05 05 20 3d 65 1e 97 bc b2 9a c6 3c 66 00 2e 3d
       0.039067287 -0.01844711 0.024243686 0.04248085
000060 6d 15 40 3d db 7f 32 3d 7c 91 4f bd 85 28 81 3a
       0.046895433 0.043578964 -0.050675854 0.0009853995
000070 06 2d 1f 3d a5 31 42 bd 8a b5 9d bc da c3 5c bc
       0.038861297 -0.047410626 -0.019251604 -0.013474429
000080 61 a8 2f 3d 90 f0 01 bc 92 11 37 38 ae 48 c1 bc
       0.042885188 -0.00793089 4.3646964e-05 -0.023594227
000090 ab 25 b1 bc e6 29 c5 bc fd 27 4e 3d 8e 2b 16 3d
       -0.021624407 -0.02406783 0.050331105 0.03666263
0000a0 1c fd cc bb 60 c9 9a bb 1b eb 40 bd a8 d2 3c bc
       -0.006255759 -0.004723713 -0.047099214 -0.011524834
0000b0 e7 b5 41 bb ab e8 53 bc 41 2c 54 bb 11 ad 10 3d
       -0.0029557885 -0.01293389 -0.003237501 0.0353213
0000c0 53 d7 db 3c 2b d4 72 3c 2b f2 42 3d 28 dc 75 3d
       0.026836073 0.014821093 0.04759423 0.06002441
0000d0 2f dc 58 3d 37 37 a6 3c 80 6d 83 3b 67 24 06 3d
       0.05294436 0.02029 0.004010856 0.03274956
0000e0 41 48 81 3c a2 18 95 bc 6f fc 54 3d e4 58 55 3d
       0.015781524 -0.018200222 0.051998552 0.052086726
0000f0 53 97 2e bd 32 38 34 bc 98 b2 e4 3c 4d 16 1a bb
       -0.042624783 -0.010999726 0.027917191 -0.0023511827
000100 a0 da 6b ba 43 0f 1c 3d d9 cb 63 3c f9 8e bb bc
       -0.0008997116 0.038100492 0.013903582 -0.022895323
000110 71 ec d0 bc 8f 66 bf 3c 34 11 5b 3b 7d 12 10 3c
       -0.025503369 0.023364333 0.0033427002 0.00879347
000120 f9 ec 9d 38 df 14 08 3d 1b 91 5f 3d f7 c7 3e bd
       7.530483e-05 0.03322303 0.054581743 -0.04657742
000130 57 9a ae bc 33 33 36 bd 5a e1 99 3c 78 08 8d bc
       -0.02131383 -0.04448242 0.018784214 -0.017215952
000140 76 b8 ae bc a7 1a 80 3c 6c 1e 54 3d 0a 74 3d 3d
       -0.021328192 0.015637709 0.051786825 0.04625324
000150 b0 8b 29 3c 65 f4 02 bd cd 3a f8 bb 9e fa dd bc
       0.0103482455 -0.031971354 -0.007575369 -0.027097043
000160 08 6c ae 3b 03 3a 13 bd 6f d0 57 bd 95 4a 24 3d
       0.005322937 -0.035943996 -0.052689012 0.04011019
000170 74 37 29 3b 9e 75 4d bc 3f 29 c6 3c af 75 67 3d
       0.0025820406 -0.012540249 0.02418959 0.056508716
000180 95 27 b7 3c a5 98 0f bd 1b 20 8c 3c 84 4c f9 3c
       0.022357741 -0.035057683 0.017105153 0.030431993
000190 cc 1b 28 3d f3 48 0c 3d dd 20 81 bd e1 d3 e4 3c
       0.041042134 0.034249257 -0.06305096 0.027933063
0001a0 37 2d e4 3c 0f cb 45 3b ab 0f 6a 3d d7 3a df bc
       0.027853591 0.0030180847 0.05714385 -0.027249737
0001b0 f3 90 37 bd d7 7b 5a 3d 64 55 3c 3d f2 1a d9 ba
       -0.04481597 0.05334076 0.045979872 -0.0016563816
0001c0 23 7c 6c 3c 2d 75 1f bc 0e e7 67 bd a6 d0 3d bd
       0.014433893 -0.009732527 -0.056616835 -0.04634156
0001d0 79 e3 c6 bc 11 90 2b 3d 98 66 2c bc f0 87 5e 3c
       -0.02427839 0.04188544 -0.010522507 0.013582215
0001e0 1a 39 0f bd 91 6f b2 bc fa 4d 56 bb fe 6d 91 3b
       -0.034966566 -0.021781715 -0.0032700286 0.004438161
0001f0 e2 bc a9 3c 00 b1 ad bc 66 bc a2 3c 7a 75 6e ba
       0.02071995 -0.021202564 0.019865226 -0.0009096485
000200 ad 4e 51 bb 8a e3 42 3d 27 99 69 3d 99 4f ce 3c
       -0.0031937764 0.04758028 0.057030823 0.02518444
000210 c8 de 24 3d 5f 36 1e bd ea 8e b8 bc 82 1d bf bc
       0.040251523 -0.03862607 -0.022529084 -0.0233295
000220 8b 4a 0e 3d e9 09 71 3c 6e a1 83 3c 50 29 a4 bc
       0.03473906 0.014711835 0.016068187 -0.02003923
000230 0c ba 6d bc 88 1e 9f 3c 1f 9d 8e bc e0 c4 2c bd
       -0.014509689 0.019423738 -0.017408906 -0.042179942
000240 39 4b 88 bc 81 d4 77 b9 0b 8b af bc 11 9c 11 bd
       -0.016637431 -0.0002363492 -0.021428606 -0.035549227
000250 47 c3 5d 3d 31 e1 80 bc b7 4e e1 3c 0a f8 75 3c
       0.05414131 -0.01573238 0.027503354 0.01501275
000260 53 2e 14 bd d1 15 1d 3d ac 8b 1c bd 41 45 0c 3d
       -0.03617699 0.038350884 -0.03821914 0.034245733
000270 78 8e 26 bd 68 b8 04 3d b3 22 86 bc b2 9f 66 bd
       -0.040663213 0.032402426 -0.016373968 -0.05630464
000280 87 17 41 bd 4e 6d 95 bc eb 4e d1 3c fe f4 18 bd
       -0.047141578 -0.018240597 0.025550326 -0.037343018
000290 76 89 56 bd ae 0c 31 bd 98 66 6d 3d 94 35 9a 3c
       -0.052377187 -0.043224983 0.05795917 0.018824376
0002a0 82 2f 58 3d c8 c9 d4 bc 91 47 e0 3c 9b 36 da 3c
       0.052779682 -0.025975123 0.027377876 0.026637366
0002b0 73 4f 4a bd 4a ce 04 bd 2d 29 77 bd 7e c9 18 3d
       -0.049392175 -0.032423295 -0.060342003 0.037301533
0002c0 8f 6b c8 bc 80 c2 52 3d 4d 47 2b 3d 3e bd 6a 3d
       -0.02446535 0.05145502 0.041816045 0.05730938
0002d0 f3 7e 7f bc e9 69 cb 3c 91 8b 4d bd f3 21 39 3d
       -0.015594232 0.024830775 -0.05018193 0.045198392
0002e0 21 62 0e 3d 84 d1 4d 3d 5b 23 8e 3c d8 5c 1a 3d
       0.03476155 0.050248638 0.017350843 0.0376862
0002f0 96 26 27 3d c4 31 ea 3c 3f 29 59 3d 9d 94 93 3b
       0.040808283 0.028588183 0.05301785 0.0045038
000300 da 36 b3 bc 87 95 21 3c da bf b3 3b 73 d9 1c bd
       -0.021876741 0.00986231 0.005485517 -0.038293313
000310 28 14 c6 bb 47 a5 b9 b9 04 e5 0b bd de 19 17 3d
       -0.0060448833 -0.0003540909 -0.034153953 0.036889903
000320 d9 ea 68 bc 8a 67 0a bd 29 d5 40 bd 95 c1 1d bd
       -0.014216148 -0.03379015 -0.047078285 -0.038514692
000330 24 a4 2f bd ea 0c 8f 3a 2c 3b 28 3c fe 89 0b 3d
       -0.042881146 0.0010913883 0.010268014 0.034067146
000340 e0 a6 02 bd 0c fd 1c 3c 6f c0 2b bd 98 aa 4b bd
       -0.031897426 0.009581815 -0.041931566 -0.049723238
000350 34 9f ab 3c bf ea 99 bc 55 a1 34 3d be 26 45 3d
       0.020949937 -0.018788693 0.04409917 0.04813265
000360 cb e5 dd 3c a9 5a ba bc c4 3a a7 bc b1 1d 0f 3d
       0.027087113 -0.022748308 -0.020413764 0.034940425
000370 b0 09 2f 3d 85 aa 56 3c 7e 8e fa 3c 38 0a 8b 3c
       0.042733848 0.013102178 0.030585524 0.016972646
000380 7d fc 09 bd 08 a2 57 3d 5a 58 3a 3d 1e de 6e bb
       -0.033688057 0.05264476 0.045494415 -0.003644831
000390 b8 a7 3e 3d 67 da 69 ba be 4a 85 bc 98 c5 f7 3c
       0.046546668 -0.0008920789 -0.016270991 0.030245587
0003a0 64 8f 36 3c 69 11 66 3c d9 ab de ba fa b7 00 3c
       0.011142585 0.014042237 -0.001698847 0.007856363
0003b0 e1 6c 14 3d 75 40 51 3d 4e 70 19 3d 8f 4e 00 bb
       0.036236648 0.05108686 0.037460618 -0.0019578075
0003c0 27 9f 07 bd ce 9d 6e 3a 3d 4d 5a 3d 13 e7 f2 3c
       -0.033110764 0.0009102494 0.053296316 0.0296512
0003d0 23 c8 3e bd 53 03 f3 bc f9 cd 18 bd 42 db 0b 3d
       -0.046577584 -0.029664671 -0.037305806 0.034144647
0003e0 63 12 0e 3d 4d c2 23 3c 61 9e b2 3b 99 97 71 3b
       0.034685504 0.009995055 0.005451009 0.003686404
0003f0 a6 01 8d 3b 66 14 5e 3d 90 02 be 3c f6 e4 21 3d
       0.004303175 0.054218672 0.023194581 0.039524995

conv2.bias f4 [20]
000000 23 0b 1c 3e 3f c1 af bb fb f3 c8 bc ad a8 bb 3e
       0.15238623 -0.005363613 -0.024530401 0.36652127
000010 0a c1 06 bd 6e ae d1 3e a0 4d 10 3e ee 2d 6a b9
       -0.03289894 0.40953392 0.14092112 -0.00022333089
000020 73 cc d4 bc 92 29 65 3f fe 91 f1 3d d8 d6 f8 3e
       -0.025976395 0.89516556 0.11795424 0.48601413
000030 ea 96 07 bd 97 1b df bc fa 66 72 bd 4b 3a 85 3f
       -0.033102907 -0.027234836 -0.059180237 1.0408415
000040 22 fb 91 bc 3b 4b 13 3f 72 c7 01 3e 2a 07 68 3f
       -0.017819945 0.5753667 0.12673739 0.9063593

conv3.weight f4 [20, 100, 4]
000000 ca fa a8 3c 40 31 3e bc 13 63 4b 3d c9 4c 1e 3d
       0.020627398 -0.011608422 0.04965503 0.038647447
000010 82 0e 9d 3c 30 3e f3 bb 40 ce ca 3a b0 63 9a 3b
       0.019171957 -0.007423185 0.0015472844 0.0047115907
000020 15 33 3e bd 58 a3 c3 3b 78 5e 68 bc e9 fc 18 3d
       -0.046435434 0.0059704 -0.014182679 0.03735057
000030 91 02 08 3d f0 4d 27 bd 21 61 2a 3d 38 60 60 bc
       0.033205573 -0.04084581 0.041596536 -0.013694815
000040 c0 a4 38 3a 38 e2 78 bc 2c b8 53 3c 69 97 22 3d
       0.00070435926 -0.0151906535 0.012922328 0.039695177
000050 d2 01 a7 3c 5a c2 14 bd 46 76 8c bc a0 e8 00 3b
       0.02038661 -0.03631816 -0.01714624 0.0019669905
000060 5a 06 ac 3c 4a c4 1b bd a4 fe 8b bc c0 88 0f bd
       0.020999122 -0.038028993 -0.017089196 -0.035042524
000070 76 fb a7 3c 60 2a e1 3a fd 19 2a bd 81 c2 30 3d
       0.020505648 0.0017178766 -0.04152869 0.043154243
000080 a0 b1 0f bc 6d 60 16 bd 85 15 20 3d 00 07 3c bd
       -0.008770376 -0.036713053 0.039083023 -0.045905113
000090 3a c4 bf bc e8 1a da 3b 54 af 04 3c b1 29 05 3d
       -0.023408998 0.0066560395 0.008098442 0.032510463
0000a0 6a 1a aa 3c 00 ee be 3b 35 bc 43 bd 7a e4 9f 3c
       0.020764548 0.0058267117 -0.04778691 0.019518126
0000b0 82 9a d0 3c f0 f4 37 bd d2 c6 8c 3c 36 6c 05 bd
       0.0254643 -0.044911325 0.017184649 -0.0325739
0000c0 70 fd 90 3b b5 2b 12 3d fa 87 8a 3c 13 8e 20 3d
       0.0044247434 0.035686214 0.016910542 0.039197993
0000d0 de 32 84 3c 14 e8 2d bc 00 48 f2 39 39 38 13 3d
       0.016137537 -0.010614414 0.0004621148 0.03594229
0000e0 c2 60 fb 3c 03 a9 38 bd d0 df ff 3b 98 38 5c bc
       0.030685786 -0.045083057 0.007808663 -0.013441227
0000f0 e0 fc 17 bd fa 37 98 bc ee 66 80 3c a2 af a4 3c
       -0.037106395 -0.01858138 0.01567408 0.02010328
000100 b3 bd 28 bd 3a 06 90 bc 96 74 bf 3c 9b be 2a bd
       -0.041196536 -0.017581094 0.023371022 -0.04168568
000110 b0 ab d1 3b 2b fb 2a bd 33 40 2d bd f0 d4 9f 3b
       0.0063986406 -0.04174344 -0.042297553 0.004877679
000120 52 0d 88 3c a1 1a 3d 3d f1 0f 31 3d fd ed cc bc
       0.016607914 0.046167973 0.043228094 -0.025015825
000130 4c 21 81 bc 4a dd e1 bc 28 51 81 bb c3 98 aa bc
       -0.015762947 -0.02757134 -0.003946442 -0.020824796
000140 33 0b f0 bc c2 df 06 bd 82 53 1b bd 00 a8 97 3b
       -0.029302215 -0.032928236 -0.037921436 0.0046281815
000150 27 65 cc bc f8 39 1e bc fa d3 ca bc 4f 51 4a bd
       -0.024950577 -0.0096573755 -0.024759281 -0.04939395
000160 41 e9 03 3d 8a 09 c6 bc 60 b9 1a bc d4 50 2b bc
       0.03220487 -0.02417447 -0.009443611 -0.010456283
000170 e4 db 68 3c 3e e2 21 bd 78 72 01 3c f4 98 61 3c
       0.014212582 -0.039522402 0.007900827 0.013769377
000180 14 10 38 bc 31 db 29 3d e5 f5 27 3d 06 4c f3 3c
       -0.011234302 0.041468803 0.041005988 0.029699337
000190 76 66 d3 3c 2f 39 3b 3d b3 cb f8 bc 30 ae 44 bb
       0.025805693 0.04570883 -0.030370569 -0.003001105
0001a0 f0 ce be bb 80 03 62 bb 3d fb f9 bc 20 8a 63 3b
       -0.0058230087 -0.003448695 -0.030515308 0.003471978
0001b0 6c c8 34 3c 8f 23 3c bd c8 33 0c 3c 38 65 70 bc
       0.011034112 -0.04593235 0.0085572675 -0.01467257
0001c0 69 11 19 3d bd bd 48 bd 35 dc 25 3d 9b 4a 22 bd
       0.03737012 -0.049009074 0.04049321 -0.03962193
0001d0 f8 75 32 3c a3 c7 38 3d e8 8f dc bb f0 94 d7 3b
       0.010892384 0.045112263 -0.006731022 0.006579034
0001e0 5a 1a d8 3c 39 d2 0e 3d aa 30 c1 bc 8b 41 39 3d
       0.026379753 0.034868453 -0.023582775 0.045228522
0001f0 ba 0c f0 3c a8 2c 19 3c 90 e4 97 bb d0 74 19 bb
       0.029302943 0.009349026 -0.004635401 -0.0023415573
000200 e0 c8 6c 3b 28 31 82 3b 59 a1 43 3d 82 71 f5 3c
       0.0036130473 0.003973145 0.047761295 0.029961351
000210 4e bf b6 3c 60 7b 9c 3a 92 8a 36 bd 80 ec 05 3a
       0.022308018 0.0011938624 -0.044565745 0.00051087886
000220 d8 a3 fa bb 24 15 7e 3c da 1e 14 bd cb 0c 48 bd
       -0.007648926 0.01550797 -0.036162235 -0.048840325
000230 e6 2d 23 bd 74 bc 64 3c ab 79 0a 3d 00 eb 17 39
       -0.039838694 0.013960946 0.033807438 0.00014488026
000240 d8 81 e4 3b 40 77 54 bc 75 5a 29 3d 80 44 cd bc
       0.0069734864 -0.012967885 0.041346032 -0.025057077
000250 1f 04 2a 3d ae cb e0 3c 68 51 b5 3b ae 03 08 bd
       0.041507836 0.027440872 0.005533386 -0.033206634
000260 6a c8 d9 bc 41 f8 36 3d 31 27 21 3d 62 13 d5 3c
       -0.026584823 0.044670347 0.039344016 0.026010219
000270 26 1f de 3c 07 c0 4b 3d 3c 9e 66 3c d8 3a 87 bb
       0.027114462 0.04974368 0.014075812 -0.004126888
000280 07 6c fe bc 62 0d 29 bd 00 1a d5 3a 14 8f 4f 3c
       -0.03105737 -0.04127253 0.0016258359 0.01266839
000290 17 5f ff bc 5f e2 24 3d b0 b3 de bc 3c 2d 06 bd
       -0.031173272 0.040254947 -0.027185291 -0.032757983
0002a0 8e 53 cc 3c 41 6d 3c 3d e0 fe 4c bb 07 20 25 3d
       0.024942186 0.04600263 -0.0031279847 0.040313747
0002b0 15 a2 13 bd c0 07 4b bc f4 64 12 bc c7 ee 44 3d
       -0.036043245 -0.012391984 -0.008935202 0.04807928
0002c0 57 d6 bc bc 40 25 2f ba ee 23 d8 3c ee d3 9a 3c
       -0.023051424 -0.0006681271 0.02638432 0.018899884
0002d0 79 7c 3e 3d aa f1 8d bc c0 71 ab 3a 18 0b 86 bb
       0.046505425 -0.017327148 0.0013080165 -0.004090678
0002e0 23 e1 33 bd 50 92 d3 3b 3f 72 3f 3d 26 49 86 3c
       -0.04391588 0.006456651 0.046739813 0.016392302
0002f0 f0 07 8b bc a5 7e 26 3d a0 72 1c bc 50 3b a9 bc
       -0.016971558 0.04064812 -0.009548813 -0.020658165
000300 48 fe 64 bc 50 b4 e5 bc a8 b6 36 bd 90 a3 ca 3b
       -0.013976641 -0.028040081 -0.04460779 0.006184049
000310 e0 4a 28 bb 5a c9 a6 bc be 19 8f 3c e5 bb 13 bd
       -0.0025679395 -0.020359684 0.01746833 -0.036067862
000320 6f 66 38 3d 50 b5 f4 bc 57 4c c2 bc ca 5f e3 3c
       0.045019563 -0.029871613 -0.023718042 0.027755637
000330 08 ff 1e bc ab c7 2f 3d b3 dd 33 3d 7d 4d 9e bc
       -0.009704359 0.042915028 0.0439126 -0.019324059
000340 f7 ab b4 bc c6 2a a8 3c ea 47 b3 3c 90 2b 9c bc
       -0.022054655 0.020528208 0.021884877 -0.019063741
000350 5d a9 ad bc da da c9 bc e4 24 55 3c ce d0 eb 3c
       -0.021198923 -0.02464049 0.013009284 0.02878609
000360 04 66 8a bc ca 59 b6 bc 88 90 20 bd c3 f0 28 bd
       -0.016894348 -0.022259612 -0.039200336 -0.041245233
000370 ce e2 27 bd 11 e8 34 3d 5a 82 bb bc 0d 53 13 bd
       -0.040987782 0.04416663 -0.022889305 -0.035967875
000380 b5 32 36 bd f5 07 3e 3d 6e ab c2 3c ad d7 27 3d
       -0.04448195 0.046394307 0.023763385 0.04097717
000390 e8 f4 96 bb 81 b9 3c 3d a0 f2 e5 ba 00 90 41 39
       -0.004606832 0.046075348 -0.0017543621 0.00018459558
0003a0 d6 5b a2 3c 2c 30 5e bc 8e 52 dc 3c ed 85 9a bc
       0.019819181 -0.01356129 0.026894834 -0.018862689
0003b0 2a d5 87 bc 3a de 34 bd 72 1c 1b bd ac ba 2b 3c
       -0.016581137 -0.044157244 -0.037868924 0.010481518
0003c0 cd ec 04 3d 9a c6 b7 bc d8 f4 3b 3c b2 ff bb 3c
       0.032452393 -0.022433568 0.0114719495 0.022949073
0003d0 fa 55 e8 3c a6 06 bf 3c 00 b4 c3 3b fd 6d 1d 3d
       0.02836131 0.0233186 0.0059723854 0.03843497
0003e0 5e 49 ed 3c 36 39 93 bc 60 e7 fb ba f2 ac d7 3c
       0.028965648 -0.017971616 -0.0019218735 0.026327584
0003f0 f4 4f 6d bc 45 fd 27 3d c5 29 17 bd fa ab 1b bd
       -0.014484394 0.04101302 -0.03690507 -0.038005807

conv3.bias f4 [20]
000000 4f ea 47 bd 3d 23 21 3d a7 3d df bc 92 a0 d2 3c
       -0.04880744 0.039340246 -0.027251078 0.025711332
000010 60 87 20 bb 82 b2 93 3c a7 ce 19 3d 9d 07 08 3d
       -0.0024494752 0.018029455 0.037550595 0.033210386
000020 1a 19 83 3c a6 04 11 bd 58 e8 a3 3b 8c 72 3c bc
       0.01600318 -0.035404824 0.005002063 -0.0115019195
000030 60 0f 66 bc 27 ea c8 bc 9d aa 2d 3d 4d 48 17 3d
       -0.014041752 -0.024525715 0.042399038 0.036934186
000040 16 e9 86 bc 00 89 3c 3c 21 54 1f 3d dd 47 27 3d
       -0.016468566 0.011507273 0.03889859 0.04084002

fc1.weight f4 [5, 60]
000000 de 36 41 be 58 77 d7 3c 3a d0 00 bc 8c 14 c2 bd
       -0.18868586 0.026302025 -0.007862145 -0.09476575
000010 46 5f 67 bd dc 76 40 be ac 70 8e bd e8 be 1b bd
       -0.056487344 -0.18795341 -0.06955084 -0.03802386
000020 35 b5 40 be 67 80 a0 3d 0b 2f 2e 3d 1a 65 25 bd
       -0.18819125 0.07836991 0.042525332 -0.04037962
000030 ee 97 17 be 7e 71 94 3d 27 71 b1 bb da 72 88 3d
       -0.1480405 0.072482094 -0.0054151 0.06662531
000040 e9 3b 99 3d b0 c8 ed 3c 99 30 6b bd e6 35 e3 3c
       0.0748213 0.02902636 -0.057419393 0.027735662
000050 73 c2 0d bd 6f c9 16 be 75 44 e5 3c 06 20 a1 bc
       -0.03460927 -0.14725278 0.027986744 -0.01966859
000060 d3 54 97 3d bf 80 9f bd b8 88 30 3d 16 44 c0 bd
       0.07389226 -0.07788228 0.043099135 -0.09387986
000070 b3 c4 bb bd c7 a4 1f be 56 45 3d bd 38 ad 4a be
       -0.09168377 -0.15590201 -0.046208702 -0.1979264
000080 16 7d 4b bd 34 4e 06 be 90 43 8c bc d8 c8 66 be
       -0.049679838 -0.1311577 -0.01712206 -0.22537553
000090 c9 97 d0 3d 6e a8 b5 bd 6f 51 fb bd 1b 28 84 be
       0.10185201 -0.08870016 -0.122713916 -0.25811848
0000a0 ce 66 97 3c 5e 4d 31 bb ed 71 2b bd 30 8e 7a bc
       0.018481638 -0.002705417 -0.041856695 -0.015292689
0000b0 f9 ce b8 3d 4c 0f a5 3c 3a 4f ad 3d 8c fd e9 bc
       0.09023852 0.020148896 0.08462377 -0.028563283
0000c0 c9 bb 78 3d cd 50 83 be 56 72 93 bd ea 6e 12 be
       0.06072596 -0.25647584 -0.07199542 -0.14300123
0000d0 37 86 e8 3d 55 b0 80 bb e4 3e 18 3d ac 3a 98 be
       0.113537244 -0.0039272704 0.037169352 -0.29732263
0000e0 71 06 9f 3d 8b 67 a2 bd 5b c5 fd 3c 86 af 9b be
       0.077649005 -0.079299055 0.030977895 -0.3040735
0000f0 ae d5 e2 bd 3f 18 45 bc f6 5c d9 bc ca dc 52 3c
       -0.110759124 -0.0120297065 -0.026533585 0.012870023
000100 a9 89 2c 3d 19 35 50 bc 8a c7 c3 3d 49 b3 8a bb
       0.04212347 -0.012707972 0.095595434 -0.0042327982
000110 ab 24 f1 bd f0 31 db 3d f7 b3 91 bd f2 cd 44 be
       -0.11774572 0.10702884 -0.07114404 -0.19219187
000120 a6 28 dc bb 97 09 9c bc 11 ef e7 bc 67 77 cf bd
       -0.006718713 -0.019047542 -0.028312238 -0.10130196
000130 30 2e c0 3d 4b 81 e9 bc 3b 54 ee bd 49 ce 9d bd
       0.093838096 -0.028504035 -0.116371594 -0.077053614
000140 b3 3b 31 bd 52 61 da 3d 51 9d ca 3d c9 fd 3b 3d
       -0.043269824 0.106630936 0.09893287 0.045896325
000150 15 06 5b 3c 79 e6 86 3d bc fe e9 bc c9 2c c1 bc
       0.013368149 0.06586928 -0.02856385 -0.023580926
000160 87 03 67 bd f7 e0 da bd 4f 0b d4 bc 8c 2b dd bd
       -0.05639985 -0.1068744 -0.025884299 -0.107993215
000170 53 5d de bd 8f a4 94 3d 54 94 8b 3d 07 02 6c be
       -0.10857644 0.072579496 0.06815401 -0.23047648
000180 a8 99 4d 3c 6c 73 86 bd d0 41 13 3d 74 fd 79 be
       0.012548842 -0.06564984 0.035951436 -0.24413091
000190 c4 1c 11 be 46 c4 a2 bd d1 5e d9 bd 83 1a 54 bd
       -0.1417113 -0.079475924 -0.10613788 -0.051783096
0001a0 4c 59 a2 b9 89 ff a2 bd 19 cc 10 be b7 10 7e 3d
       -0.0003096558 -0.07958896 -0.14140357 0.06202766
0001b0 ed e3 81 bd a5 6d e9 bd 18 de b5 bd 50 53 38 be
       -0.063423015 -0.11397866 -0.08880252 -0.18000531
0001c0 3d a1 52 3d d1 e8 8d bc 18 eb b2 3d 58 65 86 be
       0.0514233 -0.01732293 0.08736247 -0.26249194
0001d0 d5 51 b6 bd 94 2d d5 3c 1a 42 97 3c 1d e0 be bd
       -0.08902327 0.02602271 0.018464137 -0.0932009
0001e0 7f 1e ab 3e 72 00 9a bb 54 7e 6a 3e dc 0f 20 3d
       0.33421704 -0.00469976 0.22899753 0.039077625
0001f0 af ce 87 3e 8e c5 ae 3e 08 13 50 3e 32 a6 90 3d
       0.26524875 0.34135097 0.2031976 0.07062949
000200 6f 85 b2 3e cb ae 77 bc 4d 49 41 3e a2 25 e9 3e
       0.34867427 -0.0151173575 0.18875618 0.45536524
000210 f9 7a c9 bc b6 d2 0e 3e 7d 9c b6 3e a4 e5 c0 bc
       -0.02459477 0.13947567 0.35666266 -0.023547001
000220 93 e4 d2 3d 40 94 4c 3e 37 3e 2c 3e ad 4f 89 3d
       0.10297503 0.19978428 0.16820608 0.0670465
000230 aa c2 1d 3e 2e 8b 38 bd 05 59 0d 3e 0b 1b c4 3e
       0.1540629 -0.045054607 0.1380349 0.38301882
000240 f8 c0 da bc ea 90 aa 3e 07 0a 72 3e 2d 9c 7c bd
       -0.026703343 0.33313686 0.23636638 -0.06167238
000250 26 9b f4 3d c8 70 21 3f 2d 0c 4d 3e 72 6d a3 3e
       0.11943655 0.63062716 0.20024176 0.31919438
000260 34 d0 d6 bb 84 6a 06 bd 29 ca 8f bd 5a c8 2f 3f
       -0.0065555815 -0.032816425 -0.07020981 0.6866509
000270 04 bd d5 3d 37 d8 07 3f f7 d1 d1 3d 63 04 37 3f
       0.104364425 0.5306429 0.10245126 0.7149107
000280 e0 03 d2 3c 84 c1 a5 3d ec bc b9 bd b1 07 58 3e
       0.025636613 0.08093551 -0.09069237 0.21096684
000290 83 36 75 3a bb 31 8b 3e 6d a0 c9 3d 1c df 05 3e
       0.0009354131 0.2718638 0.09845052 0.1307339
0002a0 58 80 31 bd 39 2f 2f 3f af fc 9e 3d 19 ac ab 3e
       -0.04333529 0.6843143 0.07763039 0.33529738
0002b0 c4 2b 08 bd fc 9b b1 bd f1 8d 27 bd 61 3b 42 3f
       -0.033244863 -0.0867233 -0.04090685 0.75871855
0002c0 b1 a3 59 3d 64 33 bf 3e 56 66 13 3e fd e4 16 3f
       0.053134624 0.37343895 0.14394507 0.5894316
0002d0 84 db 9c 3c 7f 92 a2 bd 5b cd b8 bc 3c c9 ef bc
       0.019147642 -0.07938098 -0.022558859 -0.02927076
0002e0 c5 5f 33 bd 74 3d 50 be 94 7c 7b 3d 78 d8 01 bd
       -0.043792505 -0.20335943 0.061398104 -0.03170058
0002f0 56 e0 ef 3b 71 31 e5 3b c5 43 96 bd f9 71 ea 3c
       0.007320444 0.0069944193 -0.07337145 0.0286188
000300 1a e4 a0 3d 65 63 8d bd cc 9a 38 be 5e 63 f0 bd
       0.07856007 -0.069037236 -0.180278 -0.11737703
000310 d7 78 db 3c aa a8 07 be c5 5d b4 bd 5b 97 2a bd
       0.02679102 -0.13247934 -0.088069476 -0.04164825
000320 0e 89 64 bd 25 1d be 3d f8 65 d1 3c 39 46 11 be
       -0.055794768 0.09282903 0.025561318 -0.14186944
000330 ea 6a f4 3d 2d c3 00 be 9e 76 08 3d 74 8f d3 3b
       0.11934455 -0.12574454 0.033316247 0.00645631
000340 8b 96 92 3d ef 2d d4 bd 2f 40 32 3c 5f eb 91 bc
       0.0715762 -0.10360324 0.01087956 -0.017812429
000350 b0 c1 d4 bc bb 5e 2e 3d de b2 08 be 6b d8 87 be
       -0.025971264 0.04257081 -0.13349482 -0.265323
000360 9c 1c 59 bd 00 6f 5f be ef 19 e4 bc 7b fe 5a be
       -0.0530058 -0.21819687 -0.027844397 -0.21386139
000370 16 93 a0 bd 20 d4 98 bd 54 5e 09 be 80 48 bb bd
       -0.078405544 -0.07462335 -0.1341489 -0.09144688
000380 65 42 43 3d 54 71 ba bd 54 1c 51 b9 10 e0 93 bd
       0.04767074 -0.09103647 -0.00019942346 -0.07220471
000390 17 02 ac bd ca f2 4e bd e3 64 ae 3d e4 1b 3e be
       -0.08398836 -0.05052451 0.08515336 -0.18565327
0003a0 00 94 c1 bd f0 04 ee bd b4 20 c8 bc 57 b6 25 be
       -0.09452057 -0.116220355 -0.024429657 -0.16182838
0003b0 ed c0 dd bd 42 6e 16 be 5e d9 c3 3c 03 19 8c be
       -0.10827813 -0.14690498 0.02390736 -0.27362832
0003c0 b5 6c 7e 3d 09 ff 28 bd b2 fb 7c 3d f5 b7 ae 3c
       0.06211539 -0.041258845 0.061763473 0.021327952
0003d0 80 ab dd bd c8 b7 7e bd a4 e9 24 be 74 b7 06 be
       -0.10823727 -0.062186986 -0.16104752 -0.1315592
0003e0 1f 27 d1 bd 88 19 7d bd 89 49 68 bd 31 4e 1c be
       -0.1021254 -0.061791927 -0.056710754 -0.15264203
0003f0 b0 d3 0c 3d 14 e7 02 3d 27 ad 7f bd 4a ca e1 bd
       0.03438157 0.031958655 -0.06242099 -0.11024912

fc1.bias f4 [5]
000000 63 83 39 be 8e c5 89 be 07 c1 97 3f 7d a9 44 be
       -0.18116526 -0.26908535 1.1855782 -0.1920528
000010 be 02 b4 be
       -0.35158342
